…
RESULT - 5-fold train r2      : [0.971 0.971 0.967 0.968 0.967]   0.969 +/- 0.002  
RESULT - 5-fold cross-val RMSE: [0.281 0.29  0.295 0.292 0.296] 0.291 +/- 0.006  
RESULT - 5-fold cross-val r2  : [0.837 0.828 0.824 0.827 0.822]   0.828 +/- 0.005  
RESULT - TEST RMSE            : 0.288
RESULT - TEST r2              : 0.831


** MODEL ARCHITECTURE **
Model: "sequential_4"
_________________________________________________________________
Layer (type)                 Output Shape              Param #   
=================================================================
dense_20 (Dense)             (None, 400)               58000     
_________________________________________________________________
batch_normalization_16 (Batc (None, 400)               1600      
_________________________________________________________________
activation_16 (Activation)   (None, 400)               0         
_________________________________________________________________
dense_21 (Dense)             (None, 400)               160400    
_________________________________________________________________
batch_normalization_17 (Batc (None, 400)               1600      
_________________________________________________________________
activation_17 (Activation)   (None, 400)               0         
_________________________________________________________________
dense_22 (Dense)             (None, 400)               160400    
_________________________________________________________________
batch_normalization_18 (Batc (None, 400)               1600      
_________________________________________________________________
activation_18 (Activation)   (None, 400)               0         
_________________________________________________________________
dense_23 (Dense)             (None, 400)               160400    
_________________________________________________________________
batch_normalization_19 (Batc (None, 400)               1600      
_________________________________________________________________
activation_19 (Activation)   (None, 400)               0         
_________________________________________________________________
dense_24 (Dense)             (None, 1)                 401       
=================================================================
Total params: 546,001
Trainable params: 542,801
Non-trainable params: 3,200
_________________________________________________________________
